SSD-MB1
Profiling results:
  CPU Time   GPU Time  Parameters   Input    Architecture  
===========================================================
  12.33us    14.86us     3.21m     27.70m     Sequential(
 691.00ns   930.00ns    928.00      1.71m       (0): Sequential(
 350.00ns   529.00ns    864.00     270.00k        (0): Conv2d(3, 32, kernel_size=(3, 3), stride=(2, 2), padding=(1, 1), bias=False)
 152.00ns   174.00ns     64.00     720.00k        (1): BatchNorm2d(32, eps=1e-05, momentum=0.1, affine=True, track_running_stats=True)
 189.00ns   227.00ns       -       720.00k        (2): ReLU(inplace)
                                                )
  1.02us     1.25us      2.53k      5.76m       (1): Sequential(
 176.00ns   235.00ns    288.00     720.00k        (0): Conv2d(32, 32, kernel_size=(3, 3), stride=(1, 1), padding=(1, 1), groups=32, bias=False)
 107.00ns   102.00ns     64.00     720.00k        (1): BatchNorm2d(32, eps=1e-05, momentum=0.1, affine=True, track_running_stats=True)
  94.00ns   138.00ns       -       720.00k        (2): ReLU(inplace)
 385.00ns   431.00ns     2.05k     720.00k        (3): Conv2d(32, 64, kernel_size=(1, 1), stride=(1, 1), bias=False)
 124.00ns   139.00ns    128.00      1.44m         (4): BatchNorm2d(64, eps=1e-05, momentum=0.1, affine=True, track_running_stats=True)
 137.00ns   207.00ns       -        1.44m         (5): ReLU(inplace)
                                                )
 835.00ns   999.00ns     9.15k      3.96m       (2): Sequential(
 184.00ns   206.00ns    576.00      1.44m         (0): Conv2d(64, 64, kernel_size=(3, 3), stride=(2, 2), padding=(1, 1), groups=64, bias=False)
  93.00ns    92.00ns    128.00     360.00k        (1): BatchNorm2d(64, eps=1e-05, momentum=0.1, affine=True, track_running_stats=True)
  79.00ns    92.00ns       -       360.00k        (2): ReLU(inplace)
 311.00ns   395.00ns     8.19k     360.00k        (3): Conv2d(64, 128, kernel_size=(1, 1), stride=(1, 1), bias=False)
  91.00ns    91.00ns    256.00     720.00k        (4): BatchNorm2d(128, eps=1e-05, momentum=0.1, affine=True, track_running_stats=True)
  77.00ns   123.00ns       -       720.00k        (5): ReLU(inplace)
                                                )
 976.00ns    1.33us     18.05k      4.32m       (3): Sequential(
 204.00ns   235.00ns     1.15k     720.00k        (0): Conv2d(128, 128, kernel_size=(3, 3), stride=(1, 1), padding=(1, 1), groups=128, bias=False)
  92.00ns    95.00ns    256.00     720.00k        (1): BatchNorm2d(128, eps=1e-05, momentum=0.1, affine=True, track_running_stats=True)
  80.00ns   127.00ns       -       720.00k        (2): ReLU(inplace)
 426.00ns   643.00ns    16.38k     720.00k        (3): Conv2d(128, 128, kernel_size=(1, 1), stride=(1, 1), bias=False)
  85.00ns    94.00ns    256.00     720.00k        (4): BatchNorm2d(128, eps=1e-05, momentum=0.1, affine=True, track_running_stats=True)
  89.00ns   134.00ns       -       720.00k        (5): ReLU(inplace)
                                                )
  1.10us     1.18us     34.69k      2.01m       (4): Sequential(
 280.00ns   269.00ns     1.15k     720.00k        (0): Conv2d(128, 128, kernel_size=(3, 3), stride=(2, 2), padding=(1, 1), groups=128, bias=False)
 119.00ns   120.00ns    256.00     184.83k        (1): BatchNorm2d(128, eps=1e-05, momentum=0.1, affine=True, track_running_stats=True)
 123.00ns   125.00ns       -       184.83k        (2): ReLU(inplace)
 361.00ns   425.00ns    32.77k     184.83k        (3): Conv2d(128, 256, kernel_size=(1, 1), stride=(1, 1), bias=False)
 106.00ns   110.00ns    512.00     369.66k        (4): BatchNorm2d(256, eps=1e-05, momentum=0.1, affine=True, track_running_stats=True)
 114.00ns   127.00ns       -       369.66k        (5): ReLU(inplace)
                                                )
 954.00ns    1.05us     68.86k      2.22m       (5): Sequential(
 187.00ns   199.00ns     2.30k     369.66k        (0): Conv2d(256, 256, kernel_size=(3, 3), stride=(1, 1), padding=(1, 1), groups=256, bias=False)
 147.00ns   147.00ns    512.00     369.66k        (1): BatchNorm2d(256, eps=1e-05, momentum=0.1, affine=True, track_running_stats=True)
 108.00ns   122.00ns       -       369.66k        (2): ReLU(inplace)
 351.00ns   417.00ns    65.54k     369.66k        (3): Conv2d(256, 256, kernel_size=(1, 1), stride=(1, 1), bias=False)
  91.00ns    89.00ns    512.00     369.66k        (4): BatchNorm2d(256, eps=1e-05, momentum=0.1, affine=True, track_running_stats=True)
  70.00ns    81.00ns       -       369.66k        (5): ReLU(inplace)
                                                )
  1.25us     1.28us     134.91k     1.02m       (6): Sequential(
 321.00ns   286.00ns     2.30k     369.66k        (0): Conv2d(256, 256, kernel_size=(3, 3), stride=(2, 2), padding=(1, 1), groups=256, bias=False)
 112.00ns   120.00ns    512.00     92.42k         (1): BatchNorm2d(256, eps=1e-05, momentum=0.1, affine=True, track_running_stats=True)
 151.00ns   153.00ns       -       92.42k         (2): ReLU(inplace)
 412.00ns   466.00ns    131.07k    92.42k         (3): Conv2d(256, 512, kernel_size=(1, 1), stride=(1, 1), bias=False)
  95.00ns    95.00ns     1.02k     184.83k        (4): BatchNorm2d(512, eps=1e-05, momentum=0.1, affine=True, track_running_stats=True)
 161.00ns   165.00ns       -       184.83k        (5): ReLU(inplace)
                                                )
 936.00ns    1.12us     268.80k     1.11m       (7): Sequential(
 179.00ns   179.00ns     4.61k     184.83k        (0): Conv2d(512, 512, kernel_size=(3, 3), stride=(1, 1), padding=(1, 1), groups=512, bias=False)
  85.00ns    86.00ns     1.02k     184.83k        (1): BatchNorm2d(512, eps=1e-05, momentum=0.1, affine=True, track_running_stats=True)
 158.00ns   162.00ns       -       184.83k        (2): ReLU(inplace)
 293.00ns   474.00ns    262.14k    184.83k        (3): Conv2d(512, 512, kernel_size=(1, 1), stride=(1, 1), bias=False)
 102.00ns   102.00ns     1.02k     184.83k        (4): BatchNorm2d(512, eps=1e-05, momentum=0.1, affine=True, track_running_stats=True)
 119.00ns   122.00ns       -       184.83k        (5): ReLU(inplace)
                                                )
 947.00ns    1.17us     268.80k     1.11m       (8): Sequential(
 156.00ns   158.00ns     4.61k     184.83k        (0): Conv2d(512, 512, kernel_size=(3, 3), stride=(1, 1), padding=(1, 1), groups=512, bias=False)
  82.00ns    82.00ns     1.02k     184.83k        (1): BatchNorm2d(512, eps=1e-05, momentum=0.1, affine=True, track_running_stats=True)
 146.00ns   150.00ns       -       184.83k        (2): ReLU(inplace)
 314.00ns   525.00ns    262.14k    184.83k        (3): Conv2d(512, 512, kernel_size=(1, 1), stride=(1, 1), bias=False)
 119.00ns   119.00ns     1.02k     184.83k        (4): BatchNorm2d(512, eps=1e-05, momentum=0.1, affine=True, track_running_stats=True)
 130.00ns   133.00ns       -       184.83k        (5): ReLU(inplace)
                                                )
 810.00ns    1.03us     268.80k     1.11m       (9): Sequential(
 191.00ns   192.00ns     4.61k     184.83k        (0): Conv2d(512, 512, kernel_size=(3, 3), stride=(1, 1), padding=(1, 1), groups=512, bias=False)
  80.00ns    82.00ns     1.02k     184.83k        (1): BatchNorm2d(512, eps=1e-05, momentum=0.1, affine=True, track_running_stats=True)
  92.00ns    94.00ns       -       184.83k        (2): ReLU(inplace)
 286.00ns   490.00ns    262.14k    184.83k        (3): Conv2d(512, 512, kernel_size=(1, 1), stride=(1, 1), bias=False)
  92.00ns   104.00ns     1.02k     184.83k        (4): BatchNorm2d(512, eps=1e-05, momentum=0.1, affine=True, track_running_stats=True)
  69.00ns    71.00ns       -       184.83k        (5): ReLU(inplace)
                                                )
 856.00ns    1.07us     268.80k     1.11m       (10): Sequential(
 135.00ns   140.00ns     4.61k     184.83k        (0): Conv2d(512, 512, kernel_size=(3, 3), stride=(1, 1), padding=(1, 1), groups=512, bias=False)
  94.00ns    91.00ns     1.02k     184.83k        (1): BatchNorm2d(512, eps=1e-05, momentum=0.1, affine=True, track_running_stats=True)
 137.00ns   138.00ns       -       184.83k        (2): ReLU(inplace)
 277.00ns   485.00ns    262.14k    184.83k        (3): Conv2d(512, 512, kernel_size=(1, 1), stride=(1, 1), bias=False)
  75.00ns    75.00ns     1.02k     184.83k        (4): BatchNorm2d(512, eps=1e-05, momentum=0.1, affine=True, track_running_stats=True)
 138.00ns   139.00ns       -       184.83k        (5): ReLU(inplace)
                                                )
 659.00ns   878.00ns    268.80k     1.11m       (11): Sequential(
 145.00ns   149.00ns     4.61k     184.83k        (0): Conv2d(512, 512, kernel_size=(3, 3), stride=(1, 1), padding=(1, 1), groups=512, bias=False)
  70.00ns    70.00ns     1.02k     184.83k        (1): BatchNorm2d(512, eps=1e-05, momentum=0.1, affine=True, track_running_stats=True)
  61.00ns    64.00ns       -       184.83k        (2): ReLU(inplace)
 250.00ns   460.00ns    262.14k    184.83k        (3): Conv2d(512, 512, kernel_size=(1, 1), stride=(1, 1), bias=False)
  71.00ns    72.00ns     1.02k     184.83k        (4): BatchNorm2d(512, eps=1e-05, momentum=0.1, affine=True, track_running_stats=True)
  62.00ns    63.00ns       -       184.83k        (5): ReLU(inplace)
                                                )
 658.00ns   742.00ns    531.97k    543.23k      (12): Sequential(
 158.00ns   157.00ns     4.61k     184.83k        (0): Conv2d(512, 512, kernel_size=(3, 3), stride=(2, 2), padding=(1, 1), groups=512, bias=False)
  76.00ns    76.00ns     1.02k     51.20k         (1): BatchNorm2d(512, eps=1e-05, momentum=0.1, affine=True, track_running_stats=True)
  85.00ns    85.00ns       -       51.20k         (2): ReLU(inplace)
 201.00ns   284.00ns    524.29k    51.20k         (3): Conv2d(512, 1024, kernel_size=(1, 1), stride=(1, 1), bias=False)
  73.00ns    73.00ns     2.05k     102.40k        (4): BatchNorm2d(1024, eps=1e-05, momentum=0.1, affine=True, track_running_stats=True)
  65.00ns    67.00ns       -       102.40k        (5): ReLU(inplace)
                                                )
 632.00ns   819.00ns     1.06m     614.40k      (13): Sequential(
 122.00ns   123.00ns     9.22k     102.40k        (0): Conv2d(1024, 1024, kernel_size=(3, 3), stride=(1, 1), padding=(1, 1), groups=1024, bias=False)
  66.00ns    66.00ns     2.05k     102.40k        (1): BatchNorm2d(1024, eps=1e-05, momentum=0.1, affine=True, track_running_stats=True)
  89.00ns    90.00ns       -       102.40k        (2): ReLU(inplace)
 212.00ns   398.00ns     1.05m     102.40k        (3): Conv2d(1024, 1024, kernel_size=(1, 1), stride=(1, 1), bias=False)
  79.00ns    79.00ns     2.05k     102.40k        (4): BatchNorm2d(1024, eps=1e-05, momentum=0.1, affine=True, track_running_stats=True)
  64.00ns    63.00ns       -       102.40k        (5): ReLU(inplace)
                                                )
                                              )
