Profiling results:
  CPU Time   GPU Time  GPU Mem FP Parameters   Input    Architecture  
======================================================================
  18.77us    21.04us    12.23GB     3.21m     27.70m     Sequential(
 631.00ns   758.00ns    3.62MB     928.00      1.71m       (0): Sequential(
 380.00ns   469.00ns    3.38MB     864.00     270.00k        (0): Conv2d(3, 32, kernel_size=(3, 3), stride=(2, 2), padding=(1, 1), bias=False)
 127.00ns   134.00ns   256.00kB     64.00     720.00k        (1): BatchNorm2d(32, eps=1e-05, momentum=0.1, affine=True, track_running_stats=True)
 124.00ns   155.00ns       -          -       720.00k        (2): ReLU(inplace)
                                                           )
  1.27us     1.50us     9.88MB      2.53k      5.76m       (1): Sequential(
 230.00ns   279.00ns    1.12MB     288.00     720.00k        (0): Conv2d(32, 32, kernel_size=(3, 3), stride=(1, 1), padding=(1, 1), groups=32, bias=False)
 120.00ns   126.00ns   256.00kB     64.00     720.00k        (1): BatchNorm2d(32, eps=1e-05, momentum=0.1, affine=True, track_running_stats=True)
 103.00ns   135.00ns       -          -       720.00k        (2): ReLU(inplace)
 372.00ns   405.00ns    8.00MB      2.05k     720.00k        (3): Conv2d(32, 64, kernel_size=(1, 1), stride=(1, 1), bias=False)
 346.00ns   365.00ns   512.00kB    128.00      1.44m         (4): BatchNorm2d(64, eps=1e-05, momentum=0.1, affine=True, track_running_stats=True)
 101.00ns   186.00ns       -          -        1.44m         (5): ReLU(inplace)
                                                           )
  1.40us     1.59us     35.75MB     9.15k      3.96m       (2): Sequential(
 221.00ns   238.00ns    2.25MB     576.00      1.44m         (0): Conv2d(64, 64, kernel_size=(3, 3), stride=(2, 2), padding=(1, 1), groups=64, bias=False)
 103.00ns   106.00ns   512.00kB    128.00     360.00k        (1): BatchNorm2d(64, eps=1e-05, momentum=0.1, affine=True, track_running_stats=True)
 148.00ns   156.00ns       -          -       360.00k        (2): ReLU(inplace)
 637.00ns   766.00ns    32.00MB     8.19k     360.00k        (3): Conv2d(64, 128, kernel_size=(1, 1), stride=(1, 1), bias=False)
 203.00ns   211.00ns    1.00MB     256.00     720.00k        (4): BatchNorm2d(128, eps=1e-05, momentum=0.1, affine=True, track_running_stats=True)
  84.00ns   117.00ns       -          -       720.00k        (5): ReLU(inplace)
                                                           )
  1.78us     2.09us     70.50MB    18.05k      4.32m       (3): Sequential(
 592.00ns   645.00ns    4.50MB      1.15k     720.00k        (0): Conv2d(128, 128, kernel_size=(3, 3), stride=(1, 1), padding=(1, 1), groups=128, bias=False)
 181.00ns   190.00ns    1.00MB     256.00     720.00k        (1): BatchNorm2d(128, eps=1e-05, momentum=0.1, affine=True, track_running_stats=True)
 133.00ns   164.00ns       -          -       720.00k        (2): ReLU(inplace)
 561.00ns   742.00ns    64.00MB    16.38k     720.00k        (3): Conv2d(128, 128, kernel_size=(1, 1), stride=(1, 1), bias=False)
 174.00ns   175.00ns    1.00MB     256.00     720.00k        (4): BatchNorm2d(128, eps=1e-05, momentum=0.1, affine=True, track_running_stats=True)
 144.00ns   177.00ns       -          -       720.00k        (5): ReLU(inplace)
                                                           )
  1.75us     1.77us    135.50MB    34.69k      2.01m       (4): Sequential(
 258.00ns   249.00ns    4.50MB      1.15k     720.00k        (0): Conv2d(128, 128, kernel_size=(3, 3), stride=(2, 2), padding=(1, 1), groups=128, bias=False)
  93.00ns    92.00ns    1.00MB     256.00     184.83k        (1): BatchNorm2d(128, eps=1e-05, momentum=0.1, affine=True, track_running_stats=True)
 131.00ns   103.00ns       -          -       184.83k        (2): ReLU(inplace)
 937.00ns   934.00ns   128.00MB    32.77k     184.83k        (3): Conv2d(128, 256, kernel_size=(1, 1), stride=(1, 1), bias=False)
 228.00ns   231.00ns    2.00MB     512.00     369.66k        (4): BatchNorm2d(256, eps=1e-05, momentum=0.1, affine=True, track_running_stats=True)
 107.00ns   158.00ns       -          -       369.66k        (5): ReLU(inplace)
                                                           )
  1.66us     1.78us    269.00MB    68.86k      2.22m       (5): Sequential(
 467.00ns   467.00ns    9.00MB      2.30k     369.66k        (0): Conv2d(256, 256, kernel_size=(3, 3), stride=(1, 1), padding=(1, 1), groups=256, bias=False)
 202.00ns   204.00ns    2.00MB     512.00     369.66k        (1): BatchNorm2d(256, eps=1e-05, momentum=0.1, affine=True, track_running_stats=True)
 101.00ns   102.00ns       -          -       369.66k        (2): ReLU(inplace)
 531.00ns   645.00ns   256.00MB    65.54k     369.66k        (3): Conv2d(256, 256, kernel_size=(1, 1), stride=(1, 1), bias=False)
 204.00ns   207.00ns    2.00MB     512.00     369.66k        (4): BatchNorm2d(256, eps=1e-05, momentum=0.1, affine=True, track_running_stats=True)
 151.00ns   159.00ns       -          -       369.66k        (5): ReLU(inplace)
                                                           )
  1.50us     1.53us    527.00MB    134.91k     1.02m       (6): Sequential(
 186.00ns   189.00ns    9.00MB      2.30k     369.66k        (0): Conv2d(256, 256, kernel_size=(3, 3), stride=(2, 2), padding=(1, 1), groups=256, bias=False)
  97.00ns    99.00ns    2.00MB     512.00     92.42k         (1): BatchNorm2d(256, eps=1e-05, momentum=0.1, affine=True, track_running_stats=True)
 141.00ns   142.00ns       -          -       92.42k         (2): ReLU(inplace)
 832.00ns   857.00ns   512.00MB    131.07k    92.42k         (3): Conv2d(256, 512, kernel_size=(1, 1), stride=(1, 1), bias=False)
 140.00ns   139.00ns    4.00MB      1.02k     184.83k        (4): BatchNorm2d(512, eps=1e-05, momentum=0.1, affine=True, track_running_stats=True)
 105.00ns   107.00ns       -          -       184.83k        (5): ReLU(inplace)
                                                           )
  1.72us     1.92us     1.03GB     268.80k     1.11m       (7): Sequential(
 604.00ns   611.00ns    18.00MB     4.61k     184.83k        (0): Conv2d(512, 512, kernel_size=(3, 3), stride=(1, 1), padding=(1, 1), groups=512, bias=False)
 132.00ns   134.00ns    4.00MB      1.02k     184.83k        (1): BatchNorm2d(512, eps=1e-05, momentum=0.1, affine=True, track_running_stats=True)
  87.00ns    88.00ns       -          -       184.83k        (2): ReLU(inplace)
 667.00ns   855.00ns    1.00GB     262.14k    184.83k        (3): Conv2d(512, 512, kernel_size=(1, 1), stride=(1, 1), bias=False)
 108.00ns   108.00ns    4.00MB      1.02k     184.83k        (4): BatchNorm2d(512, eps=1e-05, momentum=0.1, affine=True, track_running_stats=True)
 126.00ns   128.00ns       -          -       184.83k        (5): ReLU(inplace)
                                                           )
  1.45us     1.64us     1.03GB     268.80k     1.11m       (8): Sequential(
 481.00ns   484.00ns    18.00MB     4.61k     184.83k        (0): Conv2d(512, 512, kernel_size=(3, 3), stride=(1, 1), padding=(1, 1), groups=512, bias=False)
 106.00ns   106.00ns    4.00MB      1.02k     184.83k        (1): BatchNorm2d(512, eps=1e-05, momentum=0.1, affine=True, track_running_stats=True)
  78.00ns    81.00ns       -          -       184.83k        (2): ReLU(inplace)
 602.00ns   782.00ns    1.00GB     262.14k    184.83k        (3): Conv2d(512, 512, kernel_size=(1, 1), stride=(1, 1), bias=False)
  98.00ns   100.00ns    4.00MB      1.02k     184.83k        (4): BatchNorm2d(512, eps=1e-05, momentum=0.1, affine=True, track_running_stats=True)
  87.00ns    88.00ns       -          -       184.83k        (5): ReLU(inplace)
                                                           )
  1.39us     1.59us     1.03GB     268.80k     1.11m       (9): Sequential(
 461.00ns   464.00ns    18.00MB     4.61k     184.83k        (0): Conv2d(512, 512, kernel_size=(3, 3), stride=(1, 1), padding=(1, 1), groups=512, bias=False)
  91.00ns    90.00ns    4.00MB      1.02k     184.83k        (1): BatchNorm2d(512, eps=1e-05, momentum=0.1, affine=True, track_running_stats=True)
 113.00ns   113.00ns       -          -       184.83k        (2): ReLU(inplace)
 529.00ns   723.00ns    1.00GB     262.14k    184.83k        (3): Conv2d(512, 512, kernel_size=(1, 1), stride=(1, 1), bias=False)
 105.00ns   105.00ns    4.00MB      1.02k     184.83k        (4): BatchNorm2d(512, eps=1e-05, momentum=0.1, affine=True, track_running_stats=True)
  93.00ns    94.00ns       -          -       184.83k        (5): ReLU(inplace)
                                                           )
  1.41us     1.60us     1.03GB     268.80k     1.11m       (10): Sequential(
 516.00ns   512.00ns    18.00MB     4.61k     184.83k        (0): Conv2d(512, 512, kernel_size=(3, 3), stride=(1, 1), padding=(1, 1), groups=512, bias=False)
 100.00ns   100.00ns    4.00MB      1.02k     184.83k        (1): BatchNorm2d(512, eps=1e-05, momentum=0.1, affine=True, track_running_stats=True)
 122.00ns   123.00ns       -          -       184.83k        (2): ReLU(inplace)
 517.00ns   713.00ns    1.00GB     262.14k    184.83k        (3): Conv2d(512, 512, kernel_size=(1, 1), stride=(1, 1), bias=False)
  77.00ns    77.00ns    4.00MB      1.02k     184.83k        (4): BatchNorm2d(512, eps=1e-05, momentum=0.1, affine=True, track_running_stats=True)
  73.00ns    77.00ns       -          -       184.83k        (5): ReLU(inplace)
                                                           )
  1.18us     1.39us     1.03GB     268.80k     1.11m       (11): Sequential(
 402.00ns   405.00ns    18.00MB     4.61k     184.83k        (0): Conv2d(512, 512, kernel_size=(3, 3), stride=(1, 1), padding=(1, 1), groups=512, bias=False)
  84.00ns    84.00ns    4.00MB      1.02k     184.83k        (1): BatchNorm2d(512, eps=1e-05, momentum=0.1, affine=True, track_running_stats=True)
  73.00ns    74.00ns       -          -       184.83k        (2): ReLU(inplace)
 463.00ns   664.00ns    1.00GB     262.14k    184.83k        (3): Conv2d(512, 512, kernel_size=(1, 1), stride=(1, 1), bias=False)
  90.00ns    90.00ns    4.00MB      1.02k     184.83k        (4): BatchNorm2d(512, eps=1e-05, momentum=0.1, affine=True, track_running_stats=True)
  68.00ns    71.00ns       -          -       184.83k        (5): ReLU(inplace)
                                                           )
 834.00ns   912.00ns    2.03GB     531.97k    543.23k      (12): Sequential(
 167.00ns   167.00ns    18.00MB     4.61k     184.83k        (0): Conv2d(512, 512, kernel_size=(3, 3), stride=(2, 2), padding=(1, 1), groups=512, bias=False)
  75.00ns    76.00ns    4.00MB      1.02k     51.20k         (1): BatchNorm2d(512, eps=1e-05, momentum=0.1, affine=True, track_running_stats=True)
  72.00ns    71.00ns       -          -       51.20k         (2): ReLU(inplace)
 206.00ns   281.00ns    2.00GB     524.29k    51.20k         (3): Conv2d(512, 1024, kernel_size=(1, 1), stride=(1, 1), bias=False)
 207.00ns   208.00ns    8.00MB      2.05k     102.40k        (4): BatchNorm2d(1024, eps=1e-05, momentum=0.1, affine=True, track_running_stats=True)
 107.00ns   109.00ns       -          -       102.40k        (5): ReLU(inplace)
                                                           )
 787.00ns   958.00ns    4.05GB      1.06m     614.40k      (13): Sequential(
 138.00ns   139.00ns    36.00MB     9.22k     102.40k        (0): Conv2d(1024, 1024, kernel_size=(3, 3), stride=(1, 1), padding=(1, 1), groups=1024, bias=False)
  85.00ns    86.00ns    8.00MB      2.05k     102.40k        (1): BatchNorm2d(1024, eps=1e-05, momentum=0.1, affine=True, track_running_stats=True)
  76.00ns    71.00ns       -          -       102.40k        (2): ReLU(inplace)
 220.00ns   393.00ns    4.00GB      1.05m     102.40k        (3): Conv2d(1024, 1024, kernel_size=(1, 1), stride=(1, 1), bias=False)
 170.00ns   170.00ns    8.00MB      2.05k     102.40k        (4): BatchNorm2d(1024, eps=1e-05, momentum=0.1, affine=True, track_running_stats=True)
  98.00ns    99.00ns       -          -       102.40k        (5): ReLU(inplace)
                                                           )
                                                         )
