Profiling results: **BUGGY: __add__ was wrong in Events class**
  CPU Time   GPU Time  Weights GPU Mem FP Parameters Input GPU Mem FP   Input    Architecture  
===============================================================================================
  19.94us    23.79us    12.23GB    57.69m     53.71GB    27.70m     Sequential(
 595.00ns   815.00ns    3.62MB      3.96m     2.75GB      1.71m       (0): Sequential(
 404.00ns   576.00ns    3.38MB      1.08m    864.00kB    270.00k        (0): Conv2d(3, 32, kernel_size=(3, 3), stride=(2, 2), padding=(1, 1), bias=False)
  91.00ns    97.00ns   256.00kB     2.88m     64.00kB    720.00k        (1): BatchNorm2d(32, eps=1e-05, momentum=0.1, affine=True, track_running_stats=True)
 100.00ns   142.00ns       -        2.88m        -       720.00k        (2): ReLU(inplace)
                                                                      )
  1.06us     1.35us     9.88MB      8.64m     13.73GB     5.76m       (1): Sequential(
 159.00ns   224.00ns    1.12MB      2.88m    288.00kB    720.00k        (0): Conv2d(32, 32, kernel_size=(3, 3), stride=(1, 1), padding=(1, 1), groups=32, bias=False)
 122.00ns   146.00ns   256.00kB     2.88m     64.00kB    720.00k        (1): BatchNorm2d(32, eps=1e-05, momentum=0.1, affine=True, track_running_stats=True)
  89.00ns   127.00ns       -        2.88m        -       720.00k        (2): ReLU(inplace)
 339.00ns   378.00ns    8.00MB      2.88m     2.00MB     720.00k        (3): Conv2d(32, 64, kernel_size=(1, 1), stride=(1, 1), bias=False)
 254.00ns   274.00ns   512.00kB     5.76m    128.00kB     1.44m         (4): BatchNorm2d(64, eps=1e-05, momentum=0.1, affine=True, track_running_stats=True)
  94.00ns   199.00ns       -        5.76m        -        1.44m         (5): ReLU(inplace)
                                                                      )
  1.22us     1.42us     35.75MB     4.33m     10.99GB     3.96m       (2): Sequential(
 235.00ns   254.00ns    2.25MB      5.76m    576.00kB     1.44m         (0): Conv2d(64, 64, kernel_size=(3, 3), stride=(2, 2), padding=(1, 1), groups=64, bias=False)
 101.00ns    92.00ns   512.00kB     1.44m    128.00kB    360.00k        (1): BatchNorm2d(64, eps=1e-05, momentum=0.1, affine=True, track_running_stats=True)
  89.00ns    98.00ns       -        1.44m        -       360.00k        (2): ReLU(inplace)
 549.00ns   679.00ns    32.00MB     1.44m     8.00MB     360.00k        (3): Conv2d(64, 128, kernel_size=(1, 1), stride=(1, 1), bias=False)
 148.00ns   160.00ns    1.00MB      2.88m    256.00kB    720.00k        (4): BatchNorm2d(128, eps=1e-05, momentum=0.1, affine=True, track_running_stats=True)
  96.00ns   141.00ns       -        2.88m        -       720.00k        (5): ReLU(inplace)
                                                                      )
  1.49us     1.80us     70.50MB     5.78m     10.99GB     4.32m       (3): Sequential(
 460.00ns   499.00ns    4.50MB      2.88m     1.12MB     720.00k        (0): Conv2d(128, 128, kernel_size=(3, 3), stride=(1, 1), padding=(1, 1), groups=128, bias=False)
 175.00ns   180.00ns    1.00MB      2.88m    256.00kB    720.00k        (1): BatchNorm2d(128, eps=1e-05, momentum=0.1, affine=True, track_running_stats=True)
  79.00ns   122.00ns       -        2.88m        -       720.00k        (2): ReLU(inplace)
 514.00ns   701.00ns    64.00MB     2.88m     16.00MB    720.00k        (3): Conv2d(128, 128, kernel_size=(1, 1), stride=(1, 1), bias=False)
 187.00ns   183.00ns    1.00MB      2.88m    256.00kB    720.00k        (4): BatchNorm2d(128, eps=1e-05, momentum=0.1, affine=True, track_running_stats=True)
  74.00ns   119.00ns       -        2.88m        -       720.00k        (5): ReLU(inplace)
                                                                      )
  1.40us     1.62us    135.50MB     2.25m     5.57GB      2.01m       (4): Sequential(
 230.00ns   234.00ns    4.50MB      2.88m     1.12MB     720.00k        (0): Conv2d(128, 128, kernel_size=(3, 3), stride=(2, 2), padding=(1, 1), groups=128, bias=False)
  78.00ns    81.00ns    1.00MB     739.33k   256.00kB    184.83k        (1): BatchNorm2d(128, eps=1e-05, momentum=0.1, affine=True, track_running_stats=True)
 103.00ns   108.00ns       -       739.33k       -       184.83k        (2): ReLU(inplace)
 643.00ns   851.00ns   128.00MB    739.33k    32.00MB    184.83k        (3): Conv2d(128, 256, kernel_size=(1, 1), stride=(1, 1), bias=False)
 243.00ns   239.00ns    2.00MB      1.48m    512.00kB    369.66k        (4): BatchNorm2d(256, eps=1e-05, momentum=0.1, affine=True, track_running_stats=True)
  99.00ns   110.00ns       -        1.48m        -       369.66k        (5): ReLU(inplace)
                                                                      )
  2.82us     3.25us    269.00MB     3.03m     5.64GB      2.22m       (5): Sequential(
 738.00ns   841.00ns    9.00MB      1.48m     2.25MB     369.66k        (0): Conv2d(256, 256, kernel_size=(3, 3), stride=(1, 1), padding=(1, 1), groups=256, bias=False)
 309.00ns   409.00ns    2.00MB      1.48m    512.00kB    369.66k        (1): BatchNorm2d(256, eps=1e-05, momentum=0.1, affine=True, track_running_stats=True)
 107.00ns   120.00ns       -        1.48m        -       369.66k        (2): ReLU(inplace)
  1.13us     1.29us    256.00MB     1.48m     64.00MB    369.66k        (3): Conv2d(256, 256, kernel_size=(1, 1), stride=(1, 1), bias=False)
 381.00ns   433.00ns    2.00MB      1.48m    512.00kB    369.66k        (4): BatchNorm2d(256, eps=1e-05, momentum=0.1, affine=True, track_running_stats=True)
 154.00ns   156.00ns       -        1.48m        -       369.66k        (5): ReLU(inplace)
                                                                      )
  1.27us     1.49us    527.00MB     1.24m     2.82GB      1.02m       (6): Sequential(
 191.00ns   194.00ns    9.00MB      1.48m     2.25MB     369.66k        (0): Conv2d(256, 256, kernel_size=(3, 3), stride=(2, 2), padding=(1, 1), groups=256, bias=False)
 147.00ns   148.00ns    2.00MB     369.66k   512.00kB    92.42k         (1): BatchNorm2d(256, eps=1e-05, momentum=0.1, affine=True, track_running_stats=True)
  89.00ns    90.00ns       -       369.66k       -       92.42k         (2): ReLU(inplace)
 662.00ns   877.00ns   512.00MB    369.66k   128.00MB    92.42k         (3): Conv2d(256, 512, kernel_size=(1, 1), stride=(1, 1), bias=False)
  97.00ns    98.00ns    4.00MB     739.33k    1.00MB     184.83k        (4): BatchNorm2d(512, eps=1e-05, momentum=0.1, affine=True, track_running_stats=True)
  80.00ns    83.00ns       -       739.33k       -       184.83k        (5): ReLU(inplace)
                                                                      )
  1.58us     1.95us     1.03GB      1.75m     2.82GB      1.11m       (7): Sequential(
 523.00ns   530.00ns    18.00MB    739.33k    4.50MB     184.83k        (0): Conv2d(512, 512, kernel_size=(3, 3), stride=(1, 1), padding=(1, 1), groups=512, bias=False)
  98.00ns    98.00ns    4.00MB     739.33k    1.00MB     184.83k        (1): BatchNorm2d(512, eps=1e-05, momentum=0.1, affine=True, track_running_stats=True)
  80.00ns    81.00ns       -       739.33k       -       184.83k        (2): ReLU(inplace)
 642.00ns   995.00ns    1.00GB     739.33k   256.00MB    184.83k        (3): Conv2d(512, 512, kernel_size=(1, 1), stride=(1, 1), bias=False)
 123.00ns   124.00ns    4.00MB     739.33k    1.00MB     184.83k        (4): BatchNorm2d(512, eps=1e-05, momentum=0.1, affine=True, track_running_stats=True)
 118.00ns   119.00ns       -       739.33k       -       184.83k        (5): ReLU(inplace)
                                                                      )
  1.51us     1.92us     1.03GB      1.75m     2.82GB      1.11m       (8): Sequential(
 560.00ns   564.00ns    18.00MB    739.33k    4.50MB     184.83k        (0): Conv2d(512, 512, kernel_size=(3, 3), stride=(1, 1), padding=(1, 1), groups=512, bias=False)
  90.00ns    90.00ns    4.00MB     739.33k    1.00MB     184.83k        (1): BatchNorm2d(512, eps=1e-05, momentum=0.1, affine=True, track_running_stats=True)
 110.00ns   112.00ns       -       739.33k       -       184.83k        (2): ReLU(inplace)
 579.00ns   978.00ns    1.00GB     739.33k   256.00MB    184.83k        (3): Conv2d(512, 512, kernel_size=(1, 1), stride=(1, 1), bias=False)
  93.00ns    93.00ns    4.00MB     739.33k    1.00MB     184.83k        (4): BatchNorm2d(512, eps=1e-05, momentum=0.1, affine=True, track_running_stats=True)
  76.00ns    82.00ns       -       739.33k       -       184.83k        (5): ReLU(inplace)
                                                                      )
  1.91us     2.18us     1.03GB      1.75m     2.82GB      1.11m       (9): Sequential(
 597.00ns   565.00ns    18.00MB    739.33k    4.50MB     184.83k        (0): Conv2d(512, 512, kernel_size=(3, 3), stride=(1, 1), padding=(1, 1), groups=512, bias=False)
 112.00ns   102.00ns    4.00MB     739.33k    1.00MB     184.83k        (1): BatchNorm2d(512, eps=1e-05, momentum=0.1, affine=True, track_running_stats=True)
 137.00ns   143.00ns       -       739.33k       -       184.83k        (2): ReLU(inplace)
 808.00ns    1.12us     1.00GB     739.33k   256.00MB    184.83k        (3): Conv2d(512, 512, kernel_size=(1, 1), stride=(1, 1), bias=False)
 123.00ns   123.00ns    4.00MB     739.33k    1.00MB     184.83k        (4): BatchNorm2d(512, eps=1e-05, momentum=0.1, affine=True, track_running_stats=True)
 132.00ns   134.00ns       -       739.33k       -       184.83k        (5): ReLU(inplace)
                                                                      )
  1.63us     1.87us     1.03GB      1.75m     2.82GB      1.11m       (10): Sequential(
 620.00ns   617.00ns    18.00MB    739.33k    4.50MB     184.83k        (0): Conv2d(512, 512, kernel_size=(3, 3), stride=(1, 1), padding=(1, 1), groups=512, bias=False)
 133.00ns   162.00ns    4.00MB     739.33k    1.00MB     184.83k        (1): BatchNorm2d(512, eps=1e-05, momentum=0.1, affine=True, track_running_stats=True)
 133.00ns   134.00ns       -       739.33k       -       184.83k        (2): ReLU(inplace)
 548.00ns   755.00ns    1.00GB     739.33k   256.00MB    184.83k        (3): Conv2d(512, 512, kernel_size=(1, 1), stride=(1, 1), bias=False)
  91.00ns    95.00ns    4.00MB     739.33k    1.00MB     184.83k        (4): BatchNorm2d(512, eps=1e-05, momentum=0.1, affine=True, track_running_stats=True)
 109.00ns   110.00ns       -       739.33k       -       184.83k        (5): ReLU(inplace)
                                                                      )
  1.49us     1.68us     1.03GB      1.75m     2.82GB      1.11m       (11): Sequential(
 522.00ns   521.00ns    18.00MB    739.33k    4.50MB     184.83k        (0): Conv2d(512, 512, kernel_size=(3, 3), stride=(1, 1), padding=(1, 1), groups=512, bias=False)
 108.00ns   106.00ns    4.00MB     739.33k    1.00MB     184.83k        (1): BatchNorm2d(512, eps=1e-05, momentum=0.1, affine=True, track_running_stats=True)
 112.00ns   114.00ns       -       739.33k       -       184.83k        (2): ReLU(inplace)
 569.00ns   756.00ns    1.00GB     739.33k   256.00MB    184.83k        (3): Conv2d(512, 512, kernel_size=(1, 1), stride=(1, 1), bias=False)
 108.00ns   109.00ns    4.00MB     739.33k    1.00MB     184.83k        (4): BatchNorm2d(512, eps=1e-05, momentum=0.1, affine=True, track_running_stats=True)
  68.00ns    69.00ns       -       739.33k       -       184.83k        (5): ReLU(inplace)
                                                                      )
 971.00ns    1.05us     2.03GB      1.14m     1.49GB     543.23k      (12): Sequential(
 188.00ns   188.00ns    18.00MB    739.33k    4.50MB     184.83k        (0): Conv2d(512, 512, kernel_size=(3, 3), stride=(2, 2), padding=(1, 1), groups=512, bias=False)
  85.00ns    86.00ns    4.00MB     204.80k    1.00MB     51.20k         (1): BatchNorm2d(512, eps=1e-05, momentum=0.1, affine=True, track_running_stats=True)
 100.00ns   101.00ns       -       204.80k       -       51.20k         (2): ReLU(inplace)
 270.00ns   349.00ns    2.00GB     204.80k   512.00MB    51.20k         (3): Conv2d(512, 1024, kernel_size=(1, 1), stride=(1, 1), bias=False)
 224.00ns   224.00ns    8.00MB     409.60k    2.00MB     102.40k        (4): BatchNorm2d(1024, eps=1e-05, momentum=0.1, affine=True, track_running_stats=True)
 104.00ns   107.00ns       -       409.60k       -       102.40k        (5): ReLU(inplace)
                                                                      )
  1.01us     1.38us     4.05GB      1.88m     1.56GB     614.40k      (13): Sequential(
 169.00ns   168.00ns    36.00MB    409.60k    9.00MB     102.40k        (0): Conv2d(1024, 1024, kernel_size=(3, 3), stride=(1, 1), padding=(1, 1), groups=1024, bias=False)
  84.00ns    85.00ns    8.00MB     409.60k    2.00MB     102.40k        (1): BatchNorm2d(1024, eps=1e-05, momentum=0.1, affine=True, track_running_stats=True)
 114.00ns   241.00ns       -       409.60k       -       102.40k        (2): ReLU(inplace)
 260.00ns   434.00ns    4.00GB     409.60k    1.00GB     102.40k        (3): Conv2d(1024, 1024, kernel_size=(1, 1), stride=(1, 1), bias=False)
 260.00ns   329.00ns    8.00MB     409.60k    2.00MB     102.40k        (4): BatchNorm2d(1024, eps=1e-05, momentum=0.1, affine=True, track_running_stats=True)
 123.00ns   124.00ns       -       409.60k       -       102.40k        (5): ReLU(inplace)
                                                                      )
                                                                    )

