SSD-MB1 - Using high-water mark for aggregate(memory and input sizes) because of layer-wise scope of parameters and input
Profiling results:
  CPU Time   GPU Time  Weights GPU Mem Parameters Input GPU Mem   Input    Architecture  
=========================================================================================
  10.21us    13.21us    4.00GB      1.05m     5.49GB      1.44m     Sequential(
 497.00ns   688.00ns    3.38MB     864.00     2.75GB     720.00k      (0): Sequential(
 335.00ns   487.00ns    3.38MB     864.00     1.03GB     270.00k        (0): Conv2d(3, 32, kernel_size=(3, 3), stride=(2, 2), padding=(1, 1), bias=False)
  76.00ns    70.00ns   256.00kB     64.00     2.75GB     720.00k        (1): BatchNorm2d(32, eps=1e-05, momentum=0.1, affine=True, track_running_stats=True)
  86.00ns   131.00ns       -          -       2.75GB     720.00k        (2): ReLU(inplace)
                                                                      )
 812.00ns    1.07us     8.00MB      2.05k     5.49GB      1.44m       (1): Sequential(
 150.00ns   220.00ns    1.12MB     288.00     2.75GB     720.00k        (0): Conv2d(32, 32, kernel_size=(3, 3), stride=(1, 1), padding=(1, 1), groups=32, bias=False)
  72.00ns    81.00ns   256.00kB     64.00     2.75GB     720.00k        (1): BatchNorm2d(32, eps=1e-05, momentum=0.1, affine=True, track_running_stats=True)
  79.00ns   126.00ns       -          -       2.75GB     720.00k        (2): ReLU(inplace)
 294.00ns   457.00ns    8.00MB      2.05k     2.75GB     720.00k        (3): Conv2d(32, 64, kernel_size=(1, 1), stride=(1, 1), bias=False)
 105.00ns    59.00ns   512.00kB    128.00     5.49GB      1.44m         (4): BatchNorm2d(64, eps=1e-05, momentum=0.1, affine=True, track_running_stats=True)
 112.00ns   130.00ns       -          -       5.49GB      1.44m         (5): ReLU(inplace)
                                                                      )
 906.00ns    1.19us     32.00MB     8.19k     5.49GB      1.44m       (2): Sequential(
 151.00ns   182.00ns    2.25MB     576.00     5.49GB      1.44m         (0): Conv2d(64, 64, kernel_size=(3, 3), stride=(2, 2), padding=(1, 1), groups=64, bias=False)
  93.00ns    94.00ns   512.00kB    128.00     1.37GB     360.00k        (1): BatchNorm2d(64, eps=1e-05, momentum=0.1, affine=True, track_running_stats=True)
  99.00ns   112.00ns       -          -       1.37GB     360.00k        (2): ReLU(inplace)
 338.00ns   530.00ns    32.00MB     8.19k     1.37GB     360.00k        (3): Conv2d(64, 128, kernel_size=(1, 1), stride=(1, 1), bias=False)
 130.00ns   140.00ns    1.00MB     256.00     2.75GB     720.00k        (4): BatchNorm2d(128, eps=1e-05, momentum=0.1, affine=True, track_running_stats=True)
  95.00ns   136.00ns       -          -       2.75GB     720.00k        (5): ReLU(inplace)
                                                                      )
 939.00ns    1.31us     64.00MB    16.38k     2.75GB     720.00k      (3): Sequential(
 185.00ns   253.00ns    4.50MB      1.15k     2.75GB     720.00k        (0): Conv2d(128, 128, kernel_size=(3, 3), stride=(1, 1), padding=(1, 1), groups=128, bias=False)
 145.00ns   134.00ns    1.00MB     256.00     2.75GB     720.00k        (1): BatchNorm2d(128, eps=1e-05, momentum=0.1, affine=True, track_running_stats=True)
  88.00ns   132.00ns       -          -       2.75GB     720.00k        (2): ReLU(inplace)
 333.00ns   550.00ns    64.00MB    16.38k     2.75GB     720.00k        (3): Conv2d(128, 128, kernel_size=(1, 1), stride=(1, 1), bias=False)
  91.00ns   100.00ns    1.00MB     256.00     2.75GB     720.00k        (4): BatchNorm2d(128, eps=1e-05, momentum=0.1, affine=True, track_running_stats=True)
  97.00ns   140.00ns       -          -       2.75GB     720.00k        (5): ReLU(inplace)
                                                                      )
 832.00ns   922.00ns   128.00MB    32.77k     2.75GB     720.00k      (4): Sequential(
 208.00ns   208.00ns    4.50MB      1.15k     2.75GB     720.00k        (0): Conv2d(128, 128, kernel_size=(3, 3), stride=(2, 2), padding=(1, 1), groups=128, bias=False)
  67.00ns    67.00ns    1.00MB     256.00    722.00MB    184.83k        (1): BatchNorm2d(128, eps=1e-05, momentum=0.1, affine=True, track_running_stats=True)
  76.00ns    77.00ns       -          -      722.00MB    184.83k        (2): ReLU(inplace)
 342.00ns   409.00ns   128.00MB    32.77k    722.00MB    184.83k        (3): Conv2d(128, 256, kernel_size=(1, 1), stride=(1, 1), bias=False)
  69.00ns    72.00ns    2.00MB     512.00     1.41GB     369.66k        (4): BatchNorm2d(256, eps=1e-05, momentum=0.1, affine=True, track_running_stats=True)
  70.00ns    89.00ns       -          -       1.41GB     369.66k        (5): ReLU(inplace)
                                                                      )
 707.00ns   886.00ns   256.00MB    65.54k     1.41GB     369.66k      (5): Sequential(
 143.00ns   165.00ns    9.00MB      2.30k     1.41GB     369.66k        (0): Conv2d(256, 256, kernel_size=(3, 3), stride=(1, 1), padding=(1, 1), groups=256, bias=False)
  68.00ns    70.00ns    2.00MB     512.00     1.41GB     369.66k        (1): BatchNorm2d(256, eps=1e-05, momentum=0.1, affine=True, track_running_stats=True)
  75.00ns    92.00ns       -          -       1.41GB     369.66k        (2): ReLU(inplace)
 264.00ns   384.00ns   256.00MB    65.54k     1.41GB     369.66k        (3): Conv2d(256, 256, kernel_size=(1, 1), stride=(1, 1), bias=False)
  80.00ns    81.00ns    2.00MB     512.00     1.41GB     369.66k        (4): BatchNorm2d(256, eps=1e-05, momentum=0.1, affine=True, track_running_stats=True)
  77.00ns    94.00ns       -          -       1.41GB     369.66k        (5): ReLU(inplace)
                                                                      )
 750.00ns   851.00ns   512.00MB    131.07k    1.41GB     369.66k      (6): Sequential(
 194.00ns   194.00ns    9.00MB      2.30k     1.41GB     369.66k        (0): Conv2d(256, 256, kernel_size=(3, 3), stride=(2, 2), padding=(1, 1), groups=256, bias=False)
  61.00ns    61.00ns    2.00MB     512.00    361.00MB    92.42k         (1): BatchNorm2d(256, eps=1e-05, momentum=0.1, affine=True, track_running_stats=True)
  67.00ns    68.00ns       -          -      361.00MB    92.42k         (2): ReLU(inplace)
 249.00ns   347.00ns   512.00MB    131.07k   361.00MB    92.42k         (3): Conv2d(256, 512, kernel_size=(1, 1), stride=(1, 1), bias=False)
  62.00ns    63.00ns    4.00MB      1.02k    722.00MB    184.83k        (4): BatchNorm2d(512, eps=1e-05, momentum=0.1, affine=True, track_running_stats=True)
 117.00ns   118.00ns       -          -      722.00MB    184.83k        (5): ReLU(inplace)
                                                                      )
 657.00ns   885.00ns    1.00GB     262.14k   722.00MB    184.83k      (7): Sequential(
 175.00ns   185.00ns    18.00MB     4.61k    722.00MB    184.83k        (0): Conv2d(512, 512, kernel_size=(3, 3), stride=(1, 1), padding=(1, 1), groups=512, bias=False)
  63.00ns    62.00ns    4.00MB      1.02k    722.00MB    184.83k        (1): BatchNorm2d(512, eps=1e-05, momentum=0.1, affine=True, track_running_stats=True)
  55.00ns    59.00ns       -          -      722.00MB    184.83k        (2): ReLU(inplace)
 235.00ns   449.00ns    1.00GB     262.14k   722.00MB    184.83k        (3): Conv2d(512, 512, kernel_size=(1, 1), stride=(1, 1), bias=False)
  58.00ns    58.00ns    4.00MB      1.02k    722.00MB    184.83k        (4): BatchNorm2d(512, eps=1e-05, momentum=0.1, affine=True, track_running_stats=True)
  71.00ns    72.00ns       -          -      722.00MB    184.83k        (5): ReLU(inplace)
                                                                      )
 890.00ns    1.13us     1.00GB     262.14k   722.00MB    184.83k      (8): Sequential(
 140.00ns   174.00ns    18.00MB     4.61k    722.00MB    184.83k        (0): Conv2d(512, 512, kernel_size=(3, 3), stride=(1, 1), padding=(1, 1), groups=512, bias=False)
 106.00ns   106.00ns    4.00MB      1.02k    722.00MB    184.83k        (1): BatchNorm2d(512, eps=1e-05, momentum=0.1, affine=True, track_running_stats=True)
  91.00ns    91.00ns       -          -      722.00MB    184.83k        (2): ReLU(inplace)
 299.00ns   507.00ns    1.00GB     262.14k   722.00MB    184.83k        (3): Conv2d(512, 512, kernel_size=(1, 1), stride=(1, 1), bias=False)
  82.00ns    82.00ns    4.00MB      1.02k    722.00MB    184.83k        (4): BatchNorm2d(512, eps=1e-05, momentum=0.1, affine=True, track_running_stats=True)
 172.00ns   172.00ns       -          -      722.00MB    184.83k        (5): ReLU(inplace)
                                                                      )
 672.00ns    1.15us     1.00GB     262.14k   722.00MB    184.83k      (9): Sequential(
 143.00ns   147.00ns    18.00MB     4.61k    722.00MB    184.83k        (0): Conv2d(512, 512, kernel_size=(3, 3), stride=(1, 1), padding=(1, 1), groups=512, bias=False)
  67.00ns    67.00ns    4.00MB      1.02k    722.00MB    184.83k        (1): BatchNorm2d(512, eps=1e-05, momentum=0.1, affine=True, track_running_stats=True)
  65.00ns    66.00ns       -          -      722.00MB    184.83k        (2): ReLU(inplace)
 255.00ns   725.00ns    1.00GB     262.14k   722.00MB    184.83k        (3): Conv2d(512, 512, kernel_size=(1, 1), stride=(1, 1), bias=False)
  61.00ns    61.00ns    4.00MB      1.02k    722.00MB    184.83k        (4): BatchNorm2d(512, eps=1e-05, momentum=0.1, affine=True, track_running_stats=True)
  81.00ns    82.00ns       -          -      722.00MB    184.83k        (5): ReLU(inplace)
                                                                      )
 710.00ns   827.00ns    1.00GB     262.14k   722.00MB    184.83k      (10): Sequential(
 137.00ns   141.00ns    18.00MB     4.61k    722.00MB    184.83k        (0): Conv2d(512, 512, kernel_size=(3, 3), stride=(1, 1), padding=(1, 1), groups=512, bias=False)
  81.00ns    81.00ns    4.00MB      1.02k    722.00MB    184.83k        (1): BatchNorm2d(512, eps=1e-05, momentum=0.1, affine=True, track_running_stats=True)
  66.00ns    67.00ns       -          -      722.00MB    184.83k        (2): ReLU(inplace)
 253.00ns   467.00ns    1.00GB     262.14k   722.00MB    184.83k        (3): Conv2d(512, 512, kernel_size=(1, 1), stride=(1, 1), bias=False)
  73.00ns    49.00ns    4.00MB      1.02k    722.00MB    184.83k        (4): BatchNorm2d(512, eps=1e-05, momentum=0.1, affine=True, track_running_stats=True)
 100.00ns    22.00ns       -          -      722.00MB    184.83k        (5): ReLU(inplace)
                                                                      )
 667.00ns   890.00ns    1.00GB     262.14k   722.00MB    184.83k      (11): Sequential(
 147.00ns   151.00ns    18.00MB     4.61k    722.00MB    184.83k        (0): Conv2d(512, 512, kernel_size=(3, 3), stride=(1, 1), padding=(1, 1), groups=512, bias=False)
  76.00ns    76.00ns    4.00MB      1.02k    722.00MB    184.83k        (1): BatchNorm2d(512, eps=1e-05, momentum=0.1, affine=True, track_running_stats=True)
  73.00ns    73.00ns       -          -      722.00MB    184.83k        (2): ReLU(inplace)
 256.00ns   471.00ns    1.00GB     262.14k   722.00MB    184.83k        (3): Conv2d(512, 512, kernel_size=(1, 1), stride=(1, 1), bias=False)
  58.00ns    59.00ns    4.00MB      1.02k    722.00MB    184.83k        (4): BatchNorm2d(512, eps=1e-05, momentum=0.1, affine=True, track_running_stats=True)
  57.00ns    60.00ns       -          -      722.00MB    184.83k        (5): ReLU(inplace)
                                                                      )
 547.00ns   630.00ns    2.00GB     524.29k   722.00MB    184.83k      (12): Sequential(
 119.00ns   119.00ns    18.00MB     4.61k    722.00MB    184.83k        (0): Conv2d(512, 512, kernel_size=(3, 3), stride=(2, 2), padding=(1, 1), groups=512, bias=False)
  59.00ns    59.00ns    4.00MB      1.02k    200.00MB    51.20k         (1): BatchNorm2d(512, eps=1e-05, momentum=0.1, affine=True, track_running_stats=True)
  61.00ns    61.00ns       -          -      200.00MB    51.20k         (2): ReLU(inplace)
 191.00ns   273.00ns    2.00GB     524.29k   200.00MB    51.20k         (3): Conv2d(512, 1024, kernel_size=(1, 1), stride=(1, 1), bias=False)
  58.00ns    59.00ns    8.00MB      2.05k    400.00MB    102.40k        (4): BatchNorm2d(1024, eps=1e-05, momentum=0.1, affine=True, track_running_stats=True)
  59.00ns    59.00ns       -          -      400.00MB    102.40k        (5): ReLU(inplace)
                                                                      )
 624.00ns   773.00ns    4.00GB      1.05m    400.00MB    102.40k      (13): Sequential(
 142.00ns   148.00ns    36.00MB     9.22k    400.00MB    102.40k        (0): Conv2d(1024, 1024, kernel_size=(3, 3), stride=(1, 1), padding=(1, 1), groups=1024, bias=False)
  58.00ns    58.00ns    8.00MB      2.05k    400.00MB    102.40k        (1): BatchNorm2d(1024, eps=1e-05, momentum=0.1, affine=True, track_running_stats=True)
  63.00ns    63.00ns       -          -      400.00MB    102.40k        (2): ReLU(inplace)
 239.00ns   416.00ns    4.00GB      1.05m    400.00MB    102.40k        (3): Conv2d(1024, 1024, kernel_size=(1, 1), stride=(1, 1), bias=False)
  60.00ns    25.00ns    8.00MB      2.05k    400.00MB    102.40k        (4): BatchNorm2d(1024, eps=1e-05, momentum=0.1, affine=True, track_running_stats=True)
  62.00ns    63.00ns       -          -      400.00MB    102.40k        (5): ReLU(inplace)
                                                                      )
                                                                    )
